{"modelTopology":{"class_name":"Sequential","config":[{"class_name":"Conv1D","config":{"filters":46,"kernel_initializer":{"class_name":"VarianceScaling","config":{"scale":1,"mode":"fan_avg","distribution":"normal","seed":null}},"kernel_regularizer":null,"kernel_constraint":null,"kernel_size":[4],"strides":[1],"padding":"valid","dilation_rate":[1],"activation":"relu","use_bias":true,"bias_initializer":{"class_name":"Zeros","config":{}},"bias_regularizer":null,"activity_regularizer":null,"bias_constraint":null,"name":"conv1d_Conv1D1","trainable":true,"batch_input_shape":[null,30,26],"dtype":"float32"}},{"class_name":"MaxPooling1D","config":{"pool_size":[27],"padding":"valid","strides":[27],"name":"max_pooling1d_MaxPooling1D1","trainable":true}},{"class_name":"Flatten","config":{"name":"flatten_Flatten1","trainable":true}},{"class_name":"Dense","config":{"units":16,"activation":"relu","use_bias":true,"kernel_initializer":{"class_name":"VarianceScaling","config":{"scale":1,"mode":"fan_avg","distribution":"normal","seed":null}},"bias_initializer":{"class_name":"Zeros","config":{}},"kernel_regularizer":null,"bias_regularizer":null,"activity_regularizer":null,"kernel_constraint":null,"bias_constraint":null,"name":"dense_Dense1","trainable":true}},{"class_name":"Dense","config":{"units":32,"activation":"relu","use_bias":true,"kernel_initializer":{"class_name":"VarianceScaling","config":{"scale":1,"mode":"fan_avg","distribution":"normal","seed":null}},"bias_initializer":{"class_name":"Zeros","config":{}},"kernel_regularizer":null,"bias_regularizer":null,"activity_regularizer":null,"kernel_constraint":null,"bias_constraint":null,"name":"dense_Dense2","trainable":true}},{"class_name":"Dense","config":{"units":1,"activation":"sigmoid","use_bias":true,"kernel_initializer":{"class_name":"VarianceScaling","config":{"scale":1,"mode":"fan_avg","distribution":"normal","seed":null}},"bias_initializer":{"class_name":"Zeros","config":{}},"kernel_regularizer":null,"bias_regularizer":null,"activity_regularizer":null,"kernel_constraint":null,"bias_constraint":null,"name":"dense_Dense3","trainable":true}}],"keras_version":"tfjs-layers 1.1.2","backend":"tensor_flow.js"},"weightsManifest":[{"paths":["weights.bin"],"weights":[{"name":"conv1d_Conv1D1/kernel","shape":[4,26,46],"dtype":"float32"},{"name":"conv1d_Conv1D1/bias","shape":[46],"dtype":"float32"},{"name":"dense_Dense1/kernel","shape":[46,16],"dtype":"float32"},{"name":"dense_Dense1/bias","shape":[16],"dtype":"float32"},{"name":"dense_Dense2/kernel","shape":[16,32],"dtype":"float32"},{"name":"dense_Dense2/bias","shape":[32],"dtype":"float32"},{"name":"dense_Dense3/kernel","shape":[32,1],"dtype":"float32"},{"name":"dense_Dense3/bias","shape":[1],"dtype":"float32"}]}]}